best-model.pt (torch, 42402 bytes, 22 tensors)

weight f4 [64, 29]
4.6086758e-08 -1.4983293e-08 -1.4192808e-08 1.5329656e-08 8.453635e-09 -1.3349357e-09 1.5003598e-08 -4.433877e-09
3.370153e-08 -3.6703933e-09 -2.6981613e-08 2.3845917e-08 5.1836153e-08 1.203933e-08 -3.849415e-08 -8.6383265e-09
2.078543e-09 2.5608704e-09 -3.0615297e-08 -5.8048175e-09 -6.0895693e-09 -2.461204e-08 3.5999825e-08 4.9056257e-09
-1.9813776e-08 4.6677306e-09 2.0924661e-08 -8.221225e-09 5.4985207e-08 3.250391e-13 -1.2693126e-12 3.651125e-12
-3.3401062e-12 -7.242756e-13 3.524748e-12 -5.9722057e-13 -1.9957506e-12 1.4808974e-12 3.3079835e-13 3.3011444e-13
8.999298e-13 -4.9226495e-12 2.114978e-12 2.536933e-12 -1.5413708e-13 1.7716706e-13 -1.1320044e-12 -8.3887373e-13
-2.3694681e-12 1.0944146e-13 -1.6938682e-12 4.9382693e-13 -2.0126186e-12 1.5800915e-12 -1.014613e-12 -2.8205365e-13
-6.279493e-13 1.0184245e-12 -0.00063827663 -0.00017355548 0.0016601378 -0.0010515011 0.00065067253 -0.00059438136
0.0012187532 -0.0025800604 -0.0002586537 0.0008185292 -0.001448834 -0.001042838 -0.0033720841 -3.091518e-05
0.0018969494 0.00024583534 -0.0006927853 -0.00026419936 0.0010899244 -0.0023608056 0.0003835169 -0.00010013071
-0.00046259415 0.0025487966 0.0014358665 -0.0011943259 -0.003226103 -0.0044270176 0.0017867635 5.2547094e-13
-4.8173195e-13 7.2037714e-12 -1.3986754e-11 -4.9350246e-12 5.188553e-12 -1.0291058e-11 5.9421175e-13 5.055825e-12
-5.7992274e-12 9.780062e-12 5.9776906e-12 -1.612872e-11 5.217072e-13 1.7409805e-11 -1.6779311e-12 -3.6030746e-13
-8.005464e-12 -7.399261e-12 -9.961777e-12 -2.2403989e-13 -8.398085e-12 1.04732965e-10 -7.635882e-12 1.1001433e-11
-7.786334e-12 -9.265579e-12 -8.38597e-12 -8.8443494e-13 -7.3236035e-09 -3.3752157e-09 -1.2156594e-08 1.4372842e-08
8.517948e-09 -1.4001528e-08 -1.7428247e-08 2.8215675e-07 -1.1152616e-08 -1.1409765e-08 1.8465455e-08 -1.0166768e-08
4.471766e-09 -1.2083442e-08 -3.8495687e-09 -1.955847e-08 -1.1320159e-08 -9.872245e-09 8.3577305e-09 1.0404877e-08
-1.0493169e-09 -1.91536e-09 -2.5611453e-07 -7.785782e-09 -2.381865e-08 1.0805962e-08 1.9413818e-08 2.8209538e-08
5.968604e-10 -0.0058156922 0.004627975 -0.002326202 6.138576e-05 -0.0036510758 -0.0025922966 -0.0035497625
0.0070307 -0.0031507115 -0.0037944894 0.003691385 -0.0005797666 0.00095132436 -0.003346163 -1.5119356e-05
-0.00084749464 0.00020326607 -0.0006604359 0.0010995105 0.0018396995 0.0014621544 0.00067103567 0.003757367
0.0016373827 -0.0037442641 0.0025682778 0.0028069236 0.0036147165 -0.0024795353 2.843799e-10 -5.142132e-11
-1.251628e-09 1.0017834e-09 7.6236817e-10 -1.6163467e-09 -1.3219742e-09 9.406934e-10 2.7872465e-10 -8.1894264e-10
5.648275e-10 8.004464e-11 1.1682002e-09 -1.072722e-09 -5.3520036e-12 -1.2765785e-09 -6.099575e-10 -5.8758365e-10
-5.729309e-10 6.517463e-10 7.1351597e-10 -7.756706e-10 -6.17883e-09 -4.4752596e-10 -1.4707432e-09 -3.4938044e-10
7.988886e-10 1.7827619e-09 -1.790644e-10 -1.6509766e-07 -1.2476822e-06 5.417487e-07 2.544591e-07 -2.0739215e-06
1.3518005e-06 3.5715493e-07 5.012314e-06 -3.2961677e-07 -2.2335541e-07 2.5004047e-07 -8.646369e-08 7.334021e-07
-9.050591e-09 -1.8543875e-07 -5.4354877e-07 -6.1207277e-07 -2.771861e-07 1.0672895e-06 5.1347183e-06 -2.7232766e-06
-2.4832428e-07 -1.9133011e-05 3.3497318e-07 -5.065435e-07 1.6386929e-06 5.3048757e-07 2.8912239e-06 9.3054916e-07
-1.7818199e-13 -4.2709773e-13 3.2488066e-12 -9.825888e-12 -1.0330368e-12 1.3054714e-13 -1.3392461e-12 -1.2563153e-12
4.4135303e-12 -3.9815924e-12 2.3956607e-12 1.2204038e-12 -1.19416855e-11 3.0926227e-12 3.303103e-12 1.0372959e-13
5.437274e-12 -6.4760594e-13 -9.097821e-12 -6.131043e-12 6.0510577e-12 -6.553126e-12 5.493465e-12 -1.7995915e-12
00000000: edf0 4533 9cb4 80b2 a1d4 73b2 45ae 8332
00000010: 7b3b 1132 e078 b7b0 43e1 8032 cb58 98b1
00000020: 39bf 1033 3e3a 7cb1 32c5 e7b2 bad5 cc32
00000030: 74a2 5e33 89d5 4e32 c454 25b3 c367 14b2
00000040: 1dd6 0e31 4ffb 2f31 e07d 03b3 b773 c7b1
00000050: 6b3c d1b1 736a d3b2 3a9e 1a33 578e a831
00000060: f432 aab2 cb61 a031 d1bd b332 543d 0db2
00000070: e028 6c33 12fb b62a cea3 b2ab 6976 802c
00000080: 010a 6bac 8fdd 4bab 3708 782c 471a 28ab
00000090: 3f70 0cac f46a d02b 1139 ba2a 81d6 b92a
000000a0: c74e 7d2b 4933 adac 0ed4 142c 5285 322c
000000b0: fd8a 2daa ee78 472a c250 9fab 391f 6cab
000000c0: 8bbc 26ac b570 f629 0964 eeab fbff 0a2b
000000d0: 1da0 0dac cc60 de2b 49cb 8eab 37c8 9eaa
000000e0: 84c0 30ab 9c54 8f2b 0552 27ba 72fc 35b9
000000f0: fb98 d93a 86d2 89ba e591 2a3a 42d0 1bba
00000100: 92be 9f3a 3b16 29bb e99b 87b9 9192 563a
00000110: cde6 bdba d6af 88ba 2ffe 5cbb ecaa 01b8
00000120: 0fa3 f83a 76e3 8039 099c 35ba 3d84 8ab9
00000130: cbdb 8e3a bfb7 1abb c412 c939 44fd d1b8
00000140: 5688 f2b9 b609 273b af33 bc3a ed8a 9cba
00000150: 076d 53bb 8410 91bb d631 ea3a 2ce8 132b
00000160: 7298 07ab ce75 fd2c bd0e 76ad c0a2 adac
00000170: 558e b62c ce0a 35ad 7841 272b d3e2 b12c
00000180: cc0a ccac 7c0d 2c2d 4052 d22c a6de 8dad
00000190: f7d8 122b 6523 992d d725 ecab c7d5 caaa
000001a0: 68d5 0cad 4f2b 02ad db3f 2fad 1a3f 7caa
000001b0: 9dbd 13ad 6b4f e62e f554 06ad 0d8a 412d
000001c0: 88fa 08ad 7500 23ad 0d87 13ad 41f2 78ab
000001d0: 19a3 fbb1 6cf1 67b1 44d9 50b2 6dec 7632
000001e0: 5556 1232 5f8b 70b2 1fb5 95b2 547b 9734
000001f0: b999 3fb2 ad04 44b2 f79d 9e32 eba9 2eb2
00000200: 12a6 9931 8a97 4fb2 2a45 84b1 8801 a8b2
00000210: 967a 42b2 989a 29b2 b095 0f32 22c1 3232
00000220: 8e37 90b0 5f9f 03b1 1d80 89b4 3bc2 05b2
00000230: c499 ccb2 20a5 3932 70c3 a632 6e51 f232
00000240: 5110 2430 9091 bebb 45a6 973b 3273 18bb
00000250: 3bbc 8038 e346 6fbb 85e3 29bb 22a3 68bb
00000260: c961 e63b 2b7c 4ebb f8ac 78bb 2aeb 713b
00000270: 7afb 17ba 4c62 793a 4d4b 5bbb 24a9 7db7
00000280: 672a 5eba d223 5539 1a21 2dba 731d 903a
00000290: 1222 f13a c3a5 bf3a 71e8 2f3a 283e 763b
000002a0: 729d d63a 5462 75bb 8d50 283b 5df4 373b
000002b0: e1e4 6c3b b37f 22bb ea56 9c2f 4227 62ae
000002c0: bf05 acb0 1faf 8930 e48e 5130 2526 deb0
000002d0: d5b0 b5b0 b549 8130 023b 992f f71b 61b0
000002e0: 3442 1b30 2005 b02e 648e a030 0d6f 93b0
000002f0: 904e bcac 9d73 afb0 f1a9 27b0 8683 21b0
00000300: 6e7c 1db0 9226 3330 3921 4430 f736 55b0
00000310: 904d d4b1 ae07 f6af 2d23 cab0 ed12 c0af
00000320: ca98 5b30 5c05 f530 26e2 44af b345 31b4
00000330: 0976 a7b5 b06c 1135 989c 8834 b32d 0bb6
00000340: 836f b535 00bf bf34 732f a836 2ff6 b0b4
00000350: 78d3 6fb4 4d3d 8634 ebad b9b3 02df 4435
00000360: ec7c 1bb2 041d 47b4 63e8 11b5 524d 24b5
00000370: 2bd0 94b4 ca3f 8f35 e54a ac36 89c1 36b6
00000380: 6e51 85b4 d47f a0b7 5dd6 b334 67f9 07b5
00000390: 0ff1 db35 d466 0e35 d906 4236 daca 7935
000003a0: 769d 48aa 456f f0aa 4c9d 642c dedb 2cad
000003b0: 1363 91ab a7fb 122a 6d7b bcab 87cf b0ab
000003c0: 8c49 9b2c ff16 8cac 6394 282c aec1 ab2b
000003d0: 9214 52ad bd9f 592c 6a6f 682c 0a94 e929
000003e0: 9c4e bf2c ed48 36ab f10c 20ad 87b7 d7ac
000003f0: 15e7 d42c 5091 e6ac bc48 c12c 1e45 fdab

weight f4 [64]
-1.8741679e-06 -1.8551954e-07 -0.0026393707 1.5795062e-07 -5.6192125e-06 -0.0040528933 -4.086265e-06 1.0980237e-05
-2.0364108e-07 -3.8840884e-05 1.5444693e-05 -4.9803632e-09 1.6316824e-07 5.6306436e-07 -2.819516e-05 -2.464167e-07
3.0376505e-05 -1.92886e-06 1.3480203e-06 -5.201435e-07 -0.0017179013 9.579192e-06 -1.2087158e-05 -4.9769e-07
1.5789998e-11 5.6568314e-07 -1.0282623e-05 -5.8443493e-07 -5.971859e-08 -0.00044148072 2.1617207e-06 -0.0008142568
0.0027800207 1.825151e-07 3.6218844e-05 6.2363847e-07 -2.4313538e-05 -0.0014302997 -1.6600414e-06 0.06693013
2.079151e-05 1.5757832e-05 0.000829499 3.0261695e-06 1.2120899e-05 -2.7549694e-08 -4.3120467e-06 2.2134441e-07
-0.0032169225 -0.0013962828 -5.5881554e-07 -4.466573e-07 4.6552564e-06 7.9689775e-09 0.0018405613 2.1143664e-07
-0.0006612417 1.1307853e-06 0.002619405 -1.2391946e-05 1.2537378e-06 1.687154e-07 -2.767971e-06 0.09452355
00000000: eb8b fbb5 3933 47b4 4bf9 2cbb 2399 2934
00000010: ab8c bcb6 22ce 84bb c01c 89b6 c237 3837
00000020: 6fa8 5ab4 15e9 22b8 3a8f 8137 bd1f abb1
00000030: 5833 2f34 7d25 1735 a584 ecb7 414b 84b4
00000040: 0cd1 fe37 9071 01b6 a0ed b435 fd9f 0bb5
00000050: 342b e1ba 51b6 2037 f3c9 4ab7 ff98 05b5
00000060: eae3 8a2d 73d9 1735 8883 2cb7 10e2 1cb5
00000070: a43e 80b3 8a76 e7b9 1412 1136 d973 55ba
00000080: 0231 363b 5ef9 4334 b0e9 1738 1c68 2735
00000090: edf4 cbb7 e578 bbba 97ce deb5 aa12 893d
000000a0: 6e69 ae37 b02f 8437 bc72 593a 3215 4b36
000000b0: dd5a 4b37 6ba6 ecb2 33b0 90b6 b0aa 6d34
000000c0: 01d3 52bb 7a03 b7ba 8301 16b5 1dcc efb4
000000d0: 5934 9c36 efe7 0832 fd3e f13a 4307 6334
000000e0: 2e57 2dba 7dc5 9735 53aa 2b3b 01e7 4fb7
000000f0: 1a46 a835 2328 3534 61c1 39b6 9095 c13d

bias f4 [64]
3.1023992e-05 -3.9745447e-09 -0.00010649469 1.92272e-08 2.071049e-06 0.00037562224 1.7476789e-07 -4.3215314e-05
6.999531e-10 0.00020035445 -2.746877e-07 4.917075e-07 6.768813e-08 -0.00029635843 -3.391455e-06 1.7417535e-06
-2.6867128e-06 7.183415e-08 -2.0883528e-05 1.5813773e-06 0.013377875 3.2783e-07 -2.3761005e-07 5.663327e-07
4.19743e-05 1.0368946e-06 -6.660283e-06 -2.479612e-10 8.2072775e-09 0.00046609907 -4.716552e-09 -0.0004872509
0.0011448008 5.810939e-05 -6.8824293e-06 -3.7674265e-05 -4.660283e-06 -0.00062463817 -7.1493396e-08 -0.023124523
0.0001471677 -2.3056064e-06 -0.0008194361 4.257688e-07 -9.199618e-06 9.0138286e-07 8.714463e-05 -9.98504e-07
-0.002811045 0.0050340104 8.271665e-05 -3.3378663e-05 3.288297e-05 -1.2740384e-07 0.00082412455 2.038471e-08
-0.00057506026 -1.1559188e-09 0.0023816014 -0.00038854667 -6.90828e-08 1.294457e-08 -7.288611e-08 -0.035193834
00000000: c21f 0238 7790 88b1 e755 dfb8 0f29 a532
00000010: 5afc 0a36 2aef c439 d5a7 3b34 1742 35b8
00000020: d266 4030 3d16 5239 ca78 93b4 e2fd 0335
00000030: f15b 9133 8e60 9bb9 c198 63b6 32c6 e935
00000040: 604d 34b6 3e43 9a33 092f afb7 b63f d435
00000050: e02e 5b3c 9d00 b034 c121 7fb4 1606 1835
00000060: 900d 3038 6d2b 8b35 657b dfb6 7051 88af
00000070: fdff 0c32 c25e f439 3b0f a2b1 b575 ffb9
00000080: 240d 963a 7bba 7338 9eef e6b6 6f04 1eb8
00000090: 875f 9cb6 c2be 23ba e987 99b3 a46f bdbc
000000a0: 0751 1a39 04ba 1ab6 6dcf 56ba 3895 e434
000000b0: 0f58 1ab7 8ff6 7135 6bc1 b638 5604 86b5
000000c0: 8239 38bb 57f4 a43b 2a78 ad38 1100 0cb8
000000d0: d2eb 0938 80cc 08b4 100a 583a 741a af32
000000e0: a4bf 16ba 47de 9eb0 a414 1c3b dab5 cbb9
000000f0: ac5a 94b3 d262 5e32 9085 9cb3 6927 10bd

running_mean f4 [64]
5.174113e-08 3.0172718e-12 0.004217689 6.587324e-11 4.7377094e-07 0.024337754 4.7948494e-09 1.4382154e-05
1.02555195e-11 3.2916447e-05 3.554369e-08 6.028819e-09 8.506711e-09 1.8234485e-07 2.5083407e-05 3.9347756e-10
6.264769e-05 7.1460576e-10 6.80962e-08 5.823363e-07 0.04939402 1.9493221e-08 1.5375116e-07 1.1465671e-09
1.7922902e-12 7.341775e-09 3.2149651e-07 2.5436476e-12 6.7324896e-12 0.0022671486 1.024344e-10 0.002993663
0.013317915 5.3646243e-08 8.0963997e-07 1.0592661e-07 3.04502e-07 0.0044215918 2.0613968e-09 0.071898505
3.615522e-06 2.3361933e-07 0.0053143473 8.088552e-09 5.003915e-07 2.7511288e-11 2.3244377e-06 4.016584e-07
0.008343958 0.015415159 2.6152426e-07 4.1416237e-07 8.391205e-07 1.418803e-12 0.007969882 1.6580493e-09
0.005356587 1.5178285e-10 0.0138965305 8.576735e-06 6.902269e-10 4.6423186e-12 7.3498015e-08 0.13099024
00000000: f939 5e33 5652 542c 8a34 8a3b 56db 902e
00000010: 955a fe34 f85f c73c f1bf a431 e24a 7137
00000020: c16a 342d c40f 0a38 b3a8 1833 0e26 cf31
00000030: e924 1232 92ca 4334 356a d237 0b51 d82f
00000040: b961 8338 e96d 4430 483c 9233 d951 1c35
00000050: 6251 4a3d 0c72 a732 cc16 2534 3e95 9d30
00000060: 0f3e fc2b f042 fc31 259a ac34 48fe 322c
00000070: e0e0 ec2c 7194 143b 7141 e12e 5531 443b
00000080: 6233 5a3c ab68 6633 0956 5935 c579 e333
00000090: 707a a334 00e3 903b 7aa8 0d31 863f 933d
000000a0: 32a2 7236 cbd8 7a34 fa23 ae3b d4f5 0a32
000000b0: a452 0635 eafd f12d 89fd 1b36 83a3 d734
000000c0: 19b5 083c dd8f 7c3c 9f67 8c34 0b5a de34
000000d0: ec3f 6135 c4ad c72b 1c94 023c 6ce1 e330
000000e0: 4f86 af3b 13e3 262f 46ae 633c cce4 0f37
000000f0: 66ba 3d30 4a56 a32c f6d5 9d33 4e22 063e

running_var f4 [64]
6.0144743e-15 2.3830623e-23 4.562286e-05 2.2426175e-20 1.5461263e-12 0.002046966 8.793431e-17 1.1515209e-09
4.0687623e-22 1.2379329e-08 5.8011165e-15 2.1352491e-16 2.0534233e-16 7.7194924e-14 3.8613246e-09 3.4303746e-19
2.9297393e-08 1.8241611e-18 1.12825305e-14 3.61565e-12 0.007412349 1.5470659e-15 1.1607023e-13 3.4286279e-18
4.913099e-24 4.225259e-16 7.314342e-13 2.4435049e-23 2.6857243e-22 1.07870765e-05 4.181543e-20 2.4025425e-05
0.00036514158 9.358313e-15 2.5859575e-12 4.5337903e-14 3.2078908e-13 0.000111225294 9.645857e-18 0.008206165
7.099312e-11 2.1156772e-13 9.170335e-05 2.0925379e-16 8.545801e-13 2.6027181e-21 1.5120225e-11 5.483426e-13
0.00025438346 0.00090827676 2.903575e-13 8.4731587e-13 3.502962e-12 3.8402652e-24 0.00030913134 9.0372054e-18
0.00023942495 1.5620136e-19 0.000876764 2.0140123e-10 1.7629415e-18 8.445946e-23 1.5219395e-14 0.01898833
00000000: bcb1 d827 c479 e619 2c5b 3f38 2acf d31e
00000010: 1299 d92b 6426 063b 41c3 ca24 8a43 9e30
00000020: 0cf1 f51b ddac 5432 db01 d127 6e2d 7625
00000030: 5cbe 6c25 d8d3 ad29 92ac 8431 5b7e ca20
00000040: a6a9 fb32 6e99 0622 7d3f 4b28 c36d 7e2c
00000050: 4ae3 f23b a8f4 de26 f7ae 022a f3fc 7c22
00000060: fa10 be18 d191 f325 63e1 4d2b 4052 ec19
00000070: 9257 a21b 24fa 3437 c177 451f 358a c937
00000080: 7970 bf39 9a95 2828 78f8 352c 0b2f 4c29
00000090: 9496 b42a a041 e938 46ef 3123 2773 063c
000000a0: 931d 9c2e 3e34 6e2a dc50 c038 d140 7125
000000b0: fc8a 702b e4a7 441d b8ff 842d 4058 1a2b
000000c0: c55e 8539 6c19 6e3a ed74 a32a 8b7f 6e2b
000000d0: c17f 762c 2590 9418 e812 a239 ffb4 2623
000000e0: 250e 7b39 f768 3820 a3d6 653a 6871 5d2f
000000f0: 0615 0222 e035 cc1a 8915 8928 6a8d 9b3c

weight f4 [48, 64]
-7.9809104e-29 1.9311e-41 2.3583355e-37 -5.924571e-13 6.7353935e-13 7.42863e-34 4.380313e-08 4.786649e-12
-6.5294e-07 2.3292908e-36 -1.153998e-12 -1.1459567e-38 1.7598231e-05 3.505664e-10 -2.0705851e-08 7.0755973e-10
-4.0351225e-12 3.82877e-40 -3.2674201e-09 -1.2073876e-13 2.360975e-30 -6.04016e-40 -1.2936675e-38 -3.2883037e-12
-4.362258e-12 -2.4165134e-38 -4.180118e-19 1.14e-43 -4.9853e-41 3.034562e-12 -1.1551533e-08 9.1048236e-35
6.304154e-05 1.3459e-35 3.6960063e-37 2.4006916e-38 -5.7746635e-38 7.3410495e-35 -6.054408e-39 8.095102e-33
-5.6266924e-10 -1.0781255e-06 -2.1765074e-19 2.8313533e-08 1.2696683e-38 -2.3529866e-07 4.502584e-18 -8.423515e-10
7.971988e-34 2.1951276e-17 -1.7227144e-08 2.2446097e-37 1.1561014e-37 5.496e-41 1.7927707e-35 5.089484e-14
-2.0655632e-08 1.80853e-40 1.9806367e-33 -2.2249355e-11 -9.2896e-41 -3.6071972e-11 -4.175258e-05 -4.8559892e-33
5.17e-43 8.442e-41 -4.595e-42 -7.053e-42 3.34e-43 5.604e-42 -3.68586e-40 -3.457e-42
-1.2149e-41 2.7e-44 -6.977e-42 -7.6e-44 4.692e-42 -1.903e-42 -4.264e-42 4.277e-42
-9.8e-44 -7.7492e-41 1.1802e-41 1.37e-42 -4.7e-43 2.281e-42 -2.503e-42 -2.234e-42
1.358e-42 4.29e-42 7.5295e-41 -6.22e-43 -4.9e-43 -3.381e-42 -2.273e-42 -5.678e-42
1.152e-42 2.783e-42 4.39e-42 -1.0071e-41 -1.36e-42 -3.034e-42 -3.1777e-41 6.94e-43
1.164e-42 3.336e-42 5.953e-42 -2.131e-42 -1.7386e-41 -1.274e-42 5.28e-41 -1.2177e-41
1.337e-42 -2.836e-42 1.862e-42 -3.617e-42 7.2858e-41 -3.161e-42 -1.928e-41 4.4015e-41
-2.059e-42 5.175e-42 -4.435e-42 -2.648e-42 5.591e-42 -1.05795e-40 -3.245e-42 3.425e-42
-3.907e-42 -2.909e-42 3.765e-42 1.99e-42 4.046e-42 4.658e-42 -5.68e-42 1.029e-42
2.773e-42 4.184e-42 -6.201e-42 -3.36e-42 3.806e-42 6.623e-42 5.391e-42 1.92e-42
4.501e-42 -6.11e-43 3.657e-42 1.81e-42 1.083e-42 -3.369e-42 -1.802e-42 1.128e-42
2.706e-42 3.216e-42 6.91e-43 -3.7e-43 -5.35e-43 2.995e-42 -1.83e-42 -2.029e-42
1.715e-42 -2.284e-42 -4.194e-42 -1.305e-42 -1.128e-42 -4.609e-42 2.895e-42 6.42e-43
-7.61e-43 -4.173e-42 -2.35e-43 5.577e-42 1.72e-42 1.268e-42 4.016e-42 -2.444e-42
9.84e-43 -9.36e-43 -9.04e-43 4.051e-42 2.288e-42 -3.722e-42 -2.661e-42 2.859e-42
-4.03e-42 1.016e-42 -2.214e-42 -9.73e-43 4.49e-42 -1.913e-42 -1.89e-43 1.998e-42
9.2728984e-36 4.3788677e-38 1.8387569e-34 3.5735493e-38 -1.0870888e-35 3.1055926e-32 -6.7802685e-37 7.7379315e-35
1.0309606e-38 -1.8367182e-34 -1.1722237e-36 4.6321437e-36 -5.2466206e-38 4.5862853e-34 8.033768e-35 1.6858678e-35
-1.1305519e-35 4.447755e-37 4.587615e-35 -8.44916e-36 4.4714888e-32 -1.5073722e-36 3.8708952e-36 -1.6277399e-36
-1.03945e-34 -6.745333e-36 1.0142231e-34 7.71734e-40 -5.05089e-39 -8.476772e-33 -4.016788e-39 6.0283634e-33
5.9651096e-32 1.4798468e-34 -2.3572674e-35 5.773096e-35 -6.233921e-36 -3.1683834e-32 2.0581723e-36 -7.1592243e-32
-1.3831629e-34 2.0354538e-36 3.927148e-32 5.9547566e-37 -1.3720088e-35 3.7471613e-37 -2.5157558e-34 9.007017e-37
-1.5051353e-32 -8.052349e-32 -8.420641e-37 4.1180658e-36 -2.576911e-35 5.3848792e-37 -1.4847901e-32 3.850206e-38
-3.7497465e-33 -1.717223e-38 1.207092e-31 2.6961474e-34 -3.676506e-37 3.960731e-39 -3.8862076e-35 -1.497833e-31
00000000: 1257 ca90 d535 0000 0080 a002 08c3 26ab
00000010: a095 3d2b ccdb 7608 0d22 3c33 4d6a a82c
00000020: b245 2fb5 7627 4604 2969 a2ab 9cc8 7c80
00000030: ea9f 9337 d6b9 c02f a6dc b1b2 177e 4230
00000040: 27f9 8dac 4e2b 0400 1089 60b1 94f0 07aa
00000050: 888b 3f0e c093 0680 30de 8c80 d064 67ac
00000060: ba7b 99ac 4891 0381 28c0 f6a0 5100 0000
00000070: f88a 0080 cf89 552c 2e74 46b2 380c f206
00000080: 2b35 8438 e21e 8f05 8389 fb02 c2b4 0201
00000090: 8833 9d81 9828 c306 3aed 4180 f220 280a
000000a0: 54aa 1ab0 1cb4 90b5 737a 80a0 1e36 f332
000000b0: 3041 8a00 67a6 7cb4 b41d a622 388b 67b0
000000c0: 1675 8408 fc76 ca23 e4fa 93b2 9ec2 9802
000000d0: 415c 1d02 3599 0000 dca3 be05 c135 6529
000000e0: 376e b1b2 25f8 0100 7c8b 2409 18b5 c3ad
000000f0: f502 0180 6ea5 1eae 7e1f 2fb8 bcb5 c989
00000100: 7101 0000 54eb 0000 cf0c 0080 a913 0080
00000110: ee00 0000 9f0f 0000 7803 0480 a309 0080
00000120: de21 0080 1300 0000 7313 0080 3600 0080
00000130: 140d 0000 4e05 0080 e30b 0080 ec0b 0000
00000140: 4600 0080 04d8 0080 e620 0000 d203 0000
00000150: 4f01 0080 5c06 0000 fa06 0080 3a06 0080
00000160: c903 0000 f50b 0000 e4d1 0000 bc01 0080
00000170: 5e01 0080 6d09 0080 5606 0080 d40f 0080
00000180: 3603 0000 c207 0000 3d0c 0000 131c 0080
00000190: cb03 0080 7508 0080 9558 0080 ef01 0000
000001a0: 3f03 0000 4d09 0000 9810 0000 f105 0080
000001b0: 7730 0080 8d03 0080 2f93 0000 f221 0080
000001c0: ba03 0000 e807 0080 3105 0000 150a 0080
000001d0: 19cb 0000 d008 0080 bf35 0080 b27a 0000
000001e0: bd05 0080 6d0e 0000 5d0c 0080 6207 0080
000001f0: 960f 0000 ea26 0180 0c09 0080 8c09 0000
00000200: e40a 0080 1c08 0080 7f0a 0000 8c05 0000
00000210: 470b 0000 fc0c 0000 d50f 0080 de02 0000
00000220: bb07 0000 aa0b 0000 4911 0080 5e09 0080
00000230: 9c0a 0000 7612 0000 070f 0000 5a05 0000
00000240: 8c0c 0000 b401 0080 320a 0000 0c05 0000
00000250: 0503 0000 6409 0080 0605 0080 2503 0000
00000260: 8b07 0000 f708 0000 ed01 0000 0801 0080
00000270: 7e01 0080 5908 0000 1a05 0080 a805 0080
00000280: c804 0000 5e06 0080 b10b 0080 a303 0080
00000290: 2503 0080 d90c 0080 1208 0000 ca01 0000
000002a0: 1f02 0080 a20b 0080 a800 0080 8c0f 0000
000002b0: cb04 0000 8903 0000 320b 0000 d006 0080
000002c0: be02 0000 9c02 0080 8502 0080 4b0b 0000
000002d0: 6106 0000 600a 0080 6b07 0080 f807 0000
000002e0: 3c0b 0080 d502 0000 2c06 0080 b602 0080
000002f0: 840c 0000 5505 0080 8700 0080 9205 0000
00000300: 7636 4505 8268 6e01 a869 7407 0290 4201
00000310: be32 6785 6840 210b 78b8 6683 a2b5 cd06
00000320: fd42 7000 4824 7487 8b71 c783 9407 c504
00000330: 9cd3 8e81 cd67 1808 fe92 d506 b045 b305
00000340: 1a71 7085 6959 1703 61eb 7306 9ab1 3385
00000350: 482c 680b a93b 0084 51a6 a404 0979 0a84
00000360: a72a 0a87 1675 0f85 39d0 0607 4867 0800
00000370: d4ff 3680 400e 308a 2cbd 2b80 8e68 fa09
00000380: f4dc 9a0b 94b4 4407 ecaa fa85 a879 9906
00000390: b294 0485 0a83 248b 0617 2f04 35dd b98b
000003a0: 98da 3787 4228 2d04 c0e8 4b0b 3fa1 4a03
000003b0: a2e5 9185 c204 ff02 5e33 a787 183f 9903
000003c0: 5c4d 9c8a 0a0d d18b 1045 8f83 c429 af04
000003d0: 1803 0986 ea3c 3703 7e30 9a8a 0aa0 5101
000003e0: 25c2 9b89 31fd ba80 83b0 1c0c 9230 b307
000003f0: c535 fa82 e820 2b00 51a0 4e86 0a6e 428c

weight f4 [48]
-3.2150608e-21 3.311e-42 1.94e-42 4.6810675e-23 -5.14e-43 -3.809862e-11 -5.9094016e-19 4.6911067e-19
-2.996e-42 3.414e-42 1.4515164e-05 -7.094507e-29 3.104469e-22 1.242e-42 -2.0247752e-18 2.183e-42
-4.106e-42 6.17e-43 5.733e-42 -1.882007e-19 -2.6528524e-34 -2.045282e-34 2.382e-42 0.031489965
1.197e-42 -6.74612e-37 9.4461687e-26 7.060367e-35 1.532058e-22 -2.5840002e-10 -1.187e-42 1.738e-42
2.6511648e-33 1.2247694e-31 6.4e-43 6.335e-42 0.051275574 2.7572892e-37 -3.818139e-27 -2.829e-42
9.95e-43 -2.253e-42 -5.47e-43 -5.0148634e-07 -8.626062e-30 2.747137e-28 -4.669e-42 -2.9340575e-12
00000000: 52ec 729d 3b09 0000 6805 0000 cf5c 621a
00000010: 6f01 0080 3c8f 27ae 2d6a 2ea1 0075 0a21
00000020: 5a08 0080 8409 0000 2886 7337 fcdd b390
00000030: 55a7 bb1b 7603 0000 ec66 15a2 1606 0000
00000040: 720b 0080 b801 0000 fb0f 0000 2c30 5ea0
00000050: f24f b087 acee 8787 a406 0000 9ffb 003d
00000060: 5603 0000 fe8e 6583 35e0 e915 5eb2 bb06
00000070: e636 391b 920e 8eaf 4f03 0080 d804 0000
00000080: 0a40 5c09 f2fb 1e0c c901 0000 a911 0000
00000090: 5606 523d c1a6 bb02 8840 9793 e307 0080
000000a0: c602 0000 4806 0080 8601 0080 e19d 06b5
000000b0: 13f5 2e8f d91e ae11 040d 0080 4877 4eac

bias f4 [48]
3.852528e-20 1.1422776e-21 2.3e-43 -1.8269349e-15 2.1536665e-31 -1.5537982e-11 -5.878832e-18 2.0989028e-17
-3.1301152e-28 -2.4216541e-33 -1.0033186e-05 7.941287e-27 -2.1248617e-12 9.1e-44 -3.3772862e-15 3.9004083e-31
-5.7e-44 -4.522384e-28 7.75e-43 -1.1517086e-15 4.0538315e-36 2.82228e-31 -2.192e-41 0.020484222
1.909e-42 -1.08163235e-30 -2.1657364e-24 3.5236734e-26 -3.4521924e-20 2.491133e-10 -9.98e-43 2.57e-42
1.3517725e-24 1.0707919e-14 -6.3408385e-31 -2.0905575e-31 -0.08169971 1.5704526e-36 4.0634115e-24 1.2608129e-28
1.9565e-41 -7.61e-43 -3.15e-43 -3.560192e-09 1.1839222e-25 1.3771003e-20 1.8329612e-21 4.905678e-10
00000000: 35ee 351f b99d ac1c a400 0000 00a5 03a7
00000010: ecc7 8b0c 6dac 88ad 00e4 d8a2 f196 c123
00000020: 0665 c691 e32e 4989 3554 28b7 1c4b 1d14
00000030: 1b86 15ac 4100 0000 ef5b 73a7 a626 fd0c
00000040: 2900 0080 f051 0f92 2902 0000 8cfa a5a6
00000050: 516e ac04 2b2d b70c 1b3d 0080 87ce a73c
00000060: 5205 0000 4081 af8d d490 2798 de7b 2e15
00000070: 7206 239f 95f3 882f c802 0080 2a07 0000
00000080: 3a2d d117 8fe5 4028 a0c5 4d8d 58af 878c
00000090: 2d52 a7bd 6e99 0504 1432 9d18 b8d3 1f11
000000a0: 8a36 0000 1f02 0080 e100 0080 8fa7 74b1
000000b0: fe8f 1216 3e10 821e a07e 0a1d a4d8 0630

running_mean f4 [48]
8.251118e-08 1e-43 6.6e-44 1.4248426e-32 1.1e-43 1.6511009e-13 3.886702e-09 4.667612e-08
3.66e-43 1.14e-43 1.2263976e-06 2.7768414e-07 2.3536373e-11 4.8e-44 2.9684583e-07 4.23e-43
1.42e-43 6.1e-43 6.501889e-39 3.6382954e-07 1.4749182e-07 3.698145e-08 9.6088597e-14 0.0012751463
5.4943847e-22 1.0300679e-09 6.1190136e-08 1.7212895e-18 1.5164465e-08 2.3444893e-14 3.5542482e-07 1.0955441e-10
1.8044519e-15 7.6741707e-38 2.518286e-22 3.27e-43 0.007795414 2.2394735e-09 2.0592692e-09 1.14e-43
8.501679e-08 1.2177932e-15 4.5790514e-13 1.5582494e-07 1.460142e-07 9.8919455e-15 4.7461737e-30 8.886706e-09
00000000: 0031 b133 4700 0000 2f00 0000 d0f6 930a
00000010: 4e00 0000 bee5 392a cb8b 8531 f078 4833
00000020: 0501 0000 5100 0000 b39a a435 9e14 9534
00000030: 3307 cf2d 2200 0000 2e5e 9f34 2e01 0000
00000040: 6500 0000 b301 0000 9fcc 4600 5a54 c334
00000050: 3e5e 1e34 89d5 1e33 4e5f d829 cf22 a73a
00000060: be0e 261c 4b92 8d30 a267 8333 7b04 fe21
00000070: 0343 8232 3e2c d328 37d1 be34 a6e9 f02e
00000080: 4306 0227 2ae9 d001 9738 981b e900 0000
00000090: ac70 ff3b 3ce5 1931 0c83 0d31 5100 0000
000000a0: 7992 b633 a480 af26 8be3 002b d550 2734
000000b0: 14c8 1c34 8c32 3228 1687 c00e 25ac 1832

running_var f4 [48]
2.3357157e-14 6e-45 6e-45 6e-45 6e-45 7.959404e-26 3.8059423e-20 6.633839e-15
6e-45 6e-45 1.2637814e-12 1.1489003e-13 3.9825815e-26 6e-45 1.6330714e-13 6e-45
6e-45 6e-45 6e-45 5.4754246e-14 8.103539e-14 4.5747114e-15 7.2381713e-35 4.4409944e-06
3.01852e-40 4.7562294e-24 1.344186e-14 5.1074935e-36 9.867839e-16 1.6847188e-27 7.6573615e-14 1.56485e-20
5.2820957e-37 6e-45 6e-45 6e-45 5.9054495e-05 3.1780865e-17 1.7368584e-17 6e-45
1.3226843e-14 1.1664852e-27 1.5073199e-29 2.0185442e-14 5.3123158e-15 6.069496e-33 6e-45 2.4533788e-16
00000000: f061 d228 0400 0000 0400 0000 0400 0000
00000010: 0400 0000 b710 c515 05bb 331f 5d02 ef27
00000020: 0400 0000 0400 0000 86dc b12b cc5a 012a
00000030: 3835 4515 0400 0000 14de 372a 0400 0000
00000040: 0400 0000 0400 0000 0400 0000 5997 7629
00000050: b979 b629 44d2 a427 716c c006 da03 9536
00000060: 7149 0300 6aff b718 a325 7228 ae3f d904
00000070: e635 8e26 287a 0513 af6d ac29 c0cb 931e
00000080: 8bbd 3303 0400 0000 0400 0000 0400 0000
00000090: 48b1 7738 3990 1224 6932 a023 0400 0000
000000a0: 0c46 6e28 43d6 b812 43dc 980f 76d0 b528
000000b0: 7765 bf27 f41d fc09 0400 0000 7b6d 8d25

weight f4 [32, 48]
-3.104275e-11 1.16809715e-17 -3.013e-42 -2.2522501e-25 5.8223624e-21 -2.8180745e-18 -8.313808e-12 5.978372e-17
-1.797476e-12 -5.8727727e-21 -3.3505668e-20 -1.7004342e-10 -1.5934596e-16 2.712e-42 -4.2496257e-25 1.0323072e-23
-2.726e-42 -1.4167328e-23 -7.390374e-12 1.419592e-13 -0.00032031673 -4.2044674e-15 1.9018117e-15 3.7693165e-18
1.20175384e-20 1.1738089e-12 -1.4029027e-19 2.4548472e-05 4.9753405e-12 -2.799159e-06 3.59e-42 5.7113776e-12
3.3162963e-22 4.663178e-19 2.0712712e-14 -4.33143e-25 4.2225952e-27 -0.00019975434 -7.303527e-11 -1.5249323e-19
-1.5778283e-22 6.705303e-20 -2.181572e-25 -2.9064188e-19 1.8091587e-12 -2.8458295e-08 5.115168e-12 5.397014e-22
1.9669266e-12 -6.516e-42 -8.5e-43 -4.2390286e-23 -4.798466e-23 1.0236136e-07 1.4986747e-07 3.8523344e-11
-2.8211043e-20 -3.1702666e-21 -8.7374365e-06 -7.303979e-17 -1.7516626e-22 5.73e-43 -2.7146646e-11 -1.894103e-06
-1.757e-42 -7.9017695e-20 -8.025875e-20 -2.959394e-12 2.1591057e-10 6.384722e-19 -4.8283036e-06 -1.3551e-40
-9.304985e-13 -1.1281905e-12 -1.6581013e-21 -1.5815008e-22 4.5559808e-26 5.772073e-12 2.219447e-22 -5.0869414e-17
-2.2133392e-16 1.3507431e-06 3.105828e-06 -2.7476577e-09 -1.85756e-40 -1.2595012e-20 1.015821e-17 5.776e-42
4.0990608e-07 -1.8853544e-19 1.6938773e-18 1.874054e-21 1.6259157e-18 1.4299504e-20 1.1733309e-14 1.9353546e-21
8.504192e-21 1.2154168e-19 1.68e-43 -2.14895e-12 -1.336407e-32 1.5006837e-08 -2.0460485e-15 5.917725e-17
-6.948147e-29 -3.2649057e-34 -0.000102110156 -1.7815723e-26 -4.6355347e-17 1.4e-44 7.404971e-17 -4.028497e-32
1.86e-43 -1.1375461e-26 2.332e-42 3.6651506e-17 4.6338963e-37 5.03273e-32 -3.243e-42 0.03698347
5.87e-42 -2.2243364e-29 5.0927913e-24 1.4389723e-26 2.013602e-21 -2.2876625e-07 -6.583e-42 -5.737e-42
-6.3991395e-24 -1.2803802e-14 -4.2892128e-32 -8.526109e-32 -0.092186116 -2.308e-42 -1.7466518e-24 5.654807e-28
-1.9e-42 6.019e-42 -3.369e-42 7.0625656e-06 1.5379555e-26 -7.658172e-19 -1.0558533e-21 -3.0370838e-11
-9.77e-43 -1.27e-42 3.653e-42 7.06e-43 -4.053e-42 6.5e-43 -7.05e-43 1.14e-42
2.098e-42 6.691e-42 3.335e-42 3.743e-42 -2.102e-42 -1.478e-42 -3.78e-43 -1.872e-42
-1.72e-43 -1.344e-42 3.56e-43 -4.725e-42 2.19e-43 4.483e-42 1.094e-42 -8.09e-43
1.966e-42 1.086e-42 -5.646e-42 7.3e-43 -1.875e-42 -6.407e-42 -4.445e-42 -7.13e-43
-1.4e-42 2.87e-43 -9.15e-43 2.534e-42 6.257e-42 -1.131e-42 -6.023e-42 -2.585e-42
-1.37e-42 3.51e-42 1.338e-42 8.41e-43 -2.08e-42 -3.488e-42 -4.331e-42 -1.589e-42
3.24e-43 -2.329e-42 -3.48e-43 -5.381e-42 2.946e-42 -3.774e-42 -1.036e-42 7.7e-44
4.2e-44 -1.149e-42 3.465e-42 2.015e-42 -1.718e-42 9.5e-43 -3.702e-42 9.84e-43
-5.614e-42 -4.59e-42 3.184e-42 -5.213e-42 5.93e-43 1.121e-42 5.025e-42 1.188e-42
-4.473e-42 1.268e-42 3.624e-42 1.1e-42 2.358e-42 3.222e-42 -5.916e-42 -5.665e-42
-3.607e-42 -2.047e-42 3.12e-43 -6.98e-42 -2.444e-42 2.456e-42 -7.05e-43 -5.75e-43
-5.63e-43 3.297e-42 -1.417e-42 1.459e-42 -2.549e-42 6.348e-42 4.096e-42 4.02e-42
-5.89e-43 -2.16e-42 -3.454e-42 -3.527e-42 -4.818e-42 -2.319e-42 -4.226e-42 -3.14e-43
-2.393e-42 4.051e-42 1.71e-43 -5.216e-42 2.243e-42 4.75e-43 -1.488e-42 8.76e-43
00000000: 0887 08ae d479 5723 6608 0080 5468 8b96
00000010: 6ff6 db1d ecef 4fa2 1042 12ad 14da 8924
00000020: e6f8 fcab f9dd dd9d de39 1e9f f8f6 3aaf
00000030: a0b6 37a5 8f07 0000 0185 0397 60ad 4719
00000040: 9907 0080 9b04 8999 4903 02ad f4d4 1f2a
00000050: 2ff0 a7b9 5e7b 97a7 3c0a 0927 3010 8b22
00000060: 4001 631e ec32 a52b 22a0 25a0 71ed cd37
00000070: e20d af2c 2fd9 3bb6 020a 0000 84f3 c82c
00000080: 3375 c81b faa1 0921 4390 ba28 200d 0697
00000090: 3446 a713 2675 51b9 349b a0ae 4008 34a0
000000a0: 6cbf 3e9b 1253 9e1f 6308 8796 8f90 aba0
000000b0: d09d fe2b 7474 f4b2 56f9 b32c 601d 231c
000000c0: 0069 0a2c 2a12 0080 5f02 0080 a2fc 4c9a
000000d0: 220a 689a c1d1 db33 42eb 2034 6e6d 292e
000000e0: 0f39 059f e089 6f9d 0197 12b7 156b a8a4
000000f0: 55c3 539b 9901 0000 d0c8 eead e238 feb5
00000100: e604 0080 4493 ba9f 7081 bd9f b43f 50ac
00000110: 6c65 6d2f 9871 3c21 d002 a2b6 bf79 0180
00000120: bef4 82ab 59c7 9eab b090 fa9c 1431 3f9b
00000130: eb99 6115 3616 cb2c 4728 861b 0198 6aa4
00000140: 3e2e 7fa5 2e4b b535 b86d 5036 4ed1 3cb1
00000150: d005 0280 bee9 6d9e ca62 3b23 1a10 0000
00000160: 1011 dc34 5795 5ea0 e0f8 f921 7a99 0d1d
00000170: 5cf1 ef21 140e 871e 565e 5328 343b 121d
00000180: c0a3 201e b87d 0f20 7800 0000 0b38 17ac
00000190: cbc7 8a8a 62e8 8032 ef6e 13a7 1574 8824
000001a0: 0d28 b090 7efd d887 f923 d6b8 3970 b094
000001b0: bcc6 55a4 0a00 0000 3cbf aa24 e92b 518b
000001c0: 8500 0000 7150 6194 8006 0000 7606 2924
000001d0: eeae 1d03 3aa8 820b 0a09 0080 fb7b 173d
000001e0: 5d10 0000 1393 e18f 9004 c518 4882 8e14
000001f0: ba24 181d caa2 75b4 5a12 0080 fe0f 0080
00000200: 028e f798 1da7 66a8 6bb5 5e8b b759 dd8b
00000210: 13cc bcbd 6f06 0080 0124 0798 3f35 3312
00000220: 4c05 0080 c710 0000 6409 0080 fafa ec36
00000230: ce4f 9814 8307 62a1 598e 9f9c 8692 05ae
00000240: b902 0080 8a03 0080 2f0a 0000 f801 0000
00000250: 4c0b 0080 d001 0000 f701 0080 2e03 0000
00000260: d905 0000 a712 0000 4c09 0000 6f0a 0000
00000270: dc05 0080 1f04 0080 0e01 0080 3805 0080
00000280: 7b00 0080 bf03 0080 fe00 0000 2c0d 0080
00000290: 9c00 0000 7f0c 0000 0d03 0000 4102 0080
000002a0: 7b05 0000 0703 0000 bd0f 0080 0902 0000
000002b0: 3a05 0080 dc11 0080 640c 0080 fd01 0080
000002c0: e703 0080 cd00 0000 8d02 0080 1007 0000
000002d0: 7111 0000 2703 0080 ca10 0080 3507 0080
000002e0: d203 0080 c909 0000 bb03 0000 5802 0000
000002f0: cc05 0080 b909 0080 130c 0080 6e04 0080
00000300: e700 0000 7e06 0080 f800 0080 000f 0080
00000310: 3608 0000 850a 0080 e302 0080 3700 0000
00000320: 1e00 0000 3403 0080 a909 0000 9e05 0000
00000330: ca04 0080 a602 0000 520a 0080 be02 0000
00000340: a60f 0080 cc0c 0080 e008 0000 880e 0080
00000350: a701 0000 2003 0000 020e 0000 5003 0000
00000360: 780c 0080 8903 0000 1a0a 0000 1103 0000
00000370: 9306 0000 fb08 0000 7e10 0080 cb0f 0080
00000380: 0e0a 0080 b505 0080 df00 0000 7513 0080
00000390: d006 0080 d906 0000 f701 0080 9a01 0080
000003a0: 9201 0080 3109 0000 f303 0080 1104 0000
000003b0: 1b07 0080 b211 0000 6b0b 0000 350b 0000
000003c0: a401 0080 0506 0080 a109 0080 d509 0080
000003d0: 6e0d 0080 7706 0080 c80b 0080 e000 0080
000003e0: ac06 0080 4b0b 0000 7a00 0000 8a0e 0080
000003f0: 4106 0000 5301 0000 2604 0080 7102 0000

weight f4 [32]
1.8220159e-06 -9.8057e-41 0.14969586 1.051e-42 -2.225e-42 -2.173e-42 1.04e-42 2.022e-42
1.763e-42 -3.489e-42 5.217e-42 -2.953e-42 9.476e-41 2.178e-42 2.7987e-41 6.05e-43
-5.0997e-41 -3.688e-42 4.74e-43 3.85067e-40 -5.797573e-34 9.8e-44 1.073e-42 -3.114e-42
2.252e-42 5.9e-43 -2.301e-42 9.64e-43 1.782e-42 4.806e-42 -5.675e-42 5.34e-43
00000000: fd8b f435 5811 0180 df49 193e ee02 0000
00000010: 3406 0080 0f06 0080 e602 0000 a305 0000
00000020: ea04 0000 ba09 0080 8b0e 0000 3b08 0080
00000030: 2708 0100 1206 0000 044e 0000 b001 0000
00000040: 298e 0080 480a 0080 5201 0000 6931 0400
00000050: 4ca8 4088 4600 0000 fe02 0000 ae08 0080
00000060: 4706 0000 a501 0000 6a06 0080 b002 0000
00000070: f804 0000 660d 0000 d20f 0080 7d01 0000

bias f4 [32]
4.9794705e-23 1.61e-43 0.1892083 4.3554722e-17 -1.3165042e-08 5.846501e-06 -7.434415e-09 5.4312504e-06
-2.3721064e-10 1.07396646e-19 1.9120119e-09 -1.3336303e-16 1.73354e-23 1.5089981e-06 2.868e-42 4.928e-42
4.061e-42 -9.5288e-41 -9.436451e-26 -3.436e-42 3.9341865e-21 3.7860315e-22 -4.132442e-18 2.6560025e-05
2.9984855e-23 2.0305954e-22 9.188166e-10 1.1880786e-13 -3.45e-43 3.9817243e-13 -2.3475927e-30 -2.46962e-39
00000000: dcca 701a 7300 0000 d2bf 413e 57dc 4824
00000010: 782c 62b2 102d c436 ce71 ffb1 163e b636
00000020: 6e68 82af 4a95 fd1f 7864 0331 d2c1 19a5
00000030: 5fa8 a719 c888 ca35 ff07 0000 bd0d 0000
00000040: 520b 0000 a009 0180 9da2 e995 9409 0080
00000050: 1ea1 941d 00da e41b d075 98a2 38cd de37
00000060: 74ff 101a e27b 751b f88f 7c30 09c4 052a
00000070: f600 0080 b226 e02a 9875 3e8e 4ce4 1a80

running_mean f4 [32]
2.9278916e-15 1.01518904e-10 0.008378455 6e-45 2.3e-43 6e-45 6e-45 6e-45
6e-45 6e-45 6e-45 6e-45 8.241e-42 6.2e-44 3.113068e-13 6e-45
4.6813226e-10 6.40434e-16 6e-45 5.6378505e-18 6.3030485e-16 6e-45 6e-45 6e-45
1.18e-43 2.72e-43 6e-45 6e-45 6e-45 6e-45 6e-45 2.72e-43
00000000: 11fa 5227 103e df2e ca45 093c 0400 0000
00000010: a400 0000 0400 0000 0400 0000 0400 0000
00000020: 0400 0000 0400 0000 0400 0000 0400 0000
00000030: f916 0000 2c00 0000 0a40 af2a 0400 0000
00000040: e1ad 0030 b097 3826 0400 0000 feff cf22
00000050: 4aac 3526 0400 0000 0400 0000 0400 0000
00000060: 5400 0000 c200 0000 0400 0000 0400 0000
00000070: 0400 0000 0400 0000 0400 0000 c200 0000

running_var f4 [32]
9.173e-41 1.4633079e-26 2.4019744e-05 6e-45 6e-45 6e-45 6e-45 6e-45
6e-45 6e-45 6e-45 6e-45 6e-45 6e-45 9.900696e-31 6e-45
1.1949033e-25 7.930087e-36 6e-45 3.3764407e-38 4.5745155e-35 6e-45 6e-45 6e-45
6e-45 6e-45 6e-45 6e-45 6e-45 6e-45 6e-45 6e-45
00000000: b5ff 0000 43eb 9014 027e c937 0400 0000
00000010: 0400 0000 0400 0000 0400 0000 0400 0000
00000020: 0400 0000 0400 0000 0400 0000 0400 0000
00000030: 0400 0000 0400 0000 e2a5 a00d 0400 0000
00000040: ffeb 1316 80a7 2805 0400 0000 b7d4 3701
00000050: 1439 7306 0400 0000 0400 0000 0400 0000
00000060: 0400 0000 0400 0000 0400 0000 0400 0000
00000070: 0400 0000 0400 0000 0400 0000 0400 0000

weight f4 [16, 32]
1.604e-42 -1.373e-42 1.05e-42 -2.75e-42 -2.803e-42 -2.59e-43 5.553e-42 2.919e-42
5.762e-42 -1.45e-42 2.763e-42 -1.991e-42 1.815e-42 2.993e-42 -4.458e-42 3.181e-42
-4.22e-43 5.118e-42 -2.134e-42 -5.038e-42 3.111e-42 1.365e-42 -1.743e-42 1.365e-42
6.376e-42 4.208e-42 5.154e-42 5.158e-42 -1.376e-42 6.621e-42 -1.265e-42 -5.466e-42
-3.066537e-08 8.4751126e-05 3.761e-42 -4.085e-42 -1.4801663e-17 3.296e-42 3.6727326e-07 4.107599e-09
5.438e-42 -1.005e-42 -5.647676e-15 5.377e-42 2.0639511e-06 -1.2374202e-10 -1.413e-42 6.715e-42
1.397e-42 1.682e-42 4.9986667e-14 -1.041085e-15 4.558027e-11 -3.12e-09 1.3578577e-12 6.978375e-09
-9.4864285e-15 -8.007617e-12 1.8141286e-14 -1.1794931e-21 1.257e-42 -6.42e-43 3.823e-42 -7.988239e-09
1.050885e-24 3.53e-43 0.13686769 5.005361e-19 -1.5649582e-09 3.747156e-06 3.307383e-08 -6.811148e-07
-2.9575128e-10 3.817357e-20 1.9670484e-08 -3.390338e-17 2.885309e-23 -3.8499553e-07 3.719e-42 1.1784e-41
5.929e-42 9.7029e-41 4.0774698e-26 3.746e-42 2.3221704e-21 -1.2575752e-21 -2.6210857e-17 1.318075e-05
3.208972e-23 2.904182e-22 2.1123481e-10 -1.4503881e-15 -6.044e-42 2.0521165e-13 -5.6705908e-30 -1.803021e-39
1.938e-42 -5.497e-42 -6.616e-42 -1.548e-42 -2.193e-42 3.234e-42 -2.032e-42 -4.006e-42
-5.509e-42 -2.609e-42 5.338e-42 -6.36e-43 6.056e-42 5.209e-42 -4.616e-42 -1.78e-43
5.426e-42 -5.413e-42 -1.288e-42 -1.492e-42 7.27e-43 2.46e-42 5.612e-42 3.753e-42
-1.858e-42 -5.8e-42 -2.458e-42 -2.88e-42 -9.8e-44 5.451e-42 -1.834e-42 4.208e-42
1.6029661e-08 7.3000693e-13 2.555e-42 -4.486242e-35 3.95e-42 3.505e-42 -1.7346126e-12 1.6893768e-08
-1.8405695e-18 -2.962e-42 -6.0599967e-12 -2.632e-42 3.559e-42 -1.033182e-12 1.019692e-20 3.817e-42
-1.4583859e-06 -2.74982e-40 1.0687746e-11 -7.6469525e-15 3.858e-42 6.044069e-14 -2.252188e-12 -1.334713e-07
1.4788406e-05 5.3836695e-05 2.0021226e-34 1.9171002e-11 2.189e-42 1.312e-42 6.222e-42 3.787231e-06
-2.748e-42 -1.4580826e-07 -2.721e-42 -2.4493844e-11 5.7246677e-13 -5.848e-42 -1.969e-42 -1.5721179e-12
-4.2605927e-12 -5.905e-42 1.2281038e-09 0.00018488168 1.1479433e-06 2.678e-42 -1.1229479e-06 1.3e-42
-2.641e-42 -6.88e-43 -1.2942535e-11 1.2157246e-12 2.2410448e-11 6.537e-42 -2.194e-42 2.462e-42
1.0369353e-11 7.316694e-10 -3.6900838e-07 -2.4521758e-13 -1.6e-43 -3.949e-42 -3.219e-42 4.4710657e-10
-4.701035e-24 -1.901321e-10 4.14e-42 -1.156831e-12 1.4721351e-22 -2.005e-42 3.313e-42 1.568e-42
6.84188e-40 9.2531747e-07 -2.6670392e-13 4.825e-42 -6.703047e-15 3.7318506e-07 1.9130474e-17 -3.3523348e-14
3.249203e-18 1.55445e-40 -3.132e-42 5.657123e-18 -7.55876e-40 -5.86281e-40 -1.56304e-40 2.1810083e-06
-6.789e-42 2.0082167e-07 -5.821e-42 4.804e-42 9.5e-44 6.0265333e-29 -8.3560826e-07 6.167e-42
2.144e-42 4.603e-42 1.536e-42 -4.39e-43 -5.213e-42 -6.54e-42 -5.382e-42 2.88e-42
4.055e-42 -1.017e-42 3.164e-42 -3.975e-42 -4.348e-42 5.69e-43 -4.771e-42 1.464e-42
1.878e-42 -7.9e-43 -3.346e-42 2.234e-42 1.132e-42 -1.596e-42 -3.69e-43 -4.762e-42
5.33e-42 4.71e-43 2.878e-42 4.365e-42 -4.518e-42 -4.3e-44 -3.596e-42 3.786e-42
00000000: 7904 0000 d403 0080 ed02 0000 aa07 0080
00000010: d007 0080 b900 0080 7b0f 0000 2308 0000
00000020: 1010 0000 0b04 0080 b407 0000 8d05 0080
00000030: 0f05 0000 5808 0000 6d0c 0080 de08 0000
00000040: 2d01 0080 440e 0000 f305 0080 0b0e 0080
00000050: ac08 0000 ce03 0000 dc04 0080 ce03 0000
00000060: c611 0000 bb0b 0000 5e0e 0000 610e 0000
00000070: d603 0080 7512 0000 8703 0080 3d0f 0080
00000080: eeb4 03b3 6abc b138 7c0a 0000 630b 0080
00000090: 7085 88a3 3009 0000 a72d c534 d322 8d31
000000a0: 290f 0000 cd02 0080 9e7a cba7 fd0e 0000
000000b0: 6982 0a36 480e 08af f003 0080 b812 0000
000000c0: e503 0000 b004 0000 b41e 6129 4209 96a6
000000d0: d276 482e 9f67 56b1 fb19 bf2b 70c6 ef31
000000e0: 6ee4 2aa8 1adf 0cad f566 a328 6e3d b29c
000000f0: 8103 0000 ca01 0080 a80a 0000 a63c 09b2
00000100: d89d a217 fc00 0000 0b27 0c3e 70bb 1321
00000110: 1216 d7b0 a677 7b36 100d 0e33 dad5 36b5
00000120: 4b97 a2af 0445 341f daf7 a832 0c5a 1ca4
00000130: 6586 0b1a 62b1 ceb4 5e0a 0000 d920 0000
00000140: 8710 0000 7a0e 0100 12e8 4915 710a 0000
00000150: 4f75 2f1d 160a be9c a3c0 f1a3 e422 5d37
00000160: 262d 1b1a 0a8c af1b 5041 682f e005 d1a6
00000170: d910 0080 3b0c 672a c806 e68e 17a2 1380
00000180: 6705 0000 530f 0080 7112 0080 5104 0080
00000190: 1d06 0080 0409 0000 aa05 0080 2b0b 0080
000001a0: 5b0f 0080 4607 0080 e10e 0000 c601 0080
000001b0: e210 0000 850e 0000 de0c 0080 7f00 0080
000001c0: 200f 0000 170f 0080 9703 0080 2904 0080
000001d0: 0702 0000 dc06 0000 a50f 0000 760a 0000
000001e0: 2e05 0080 2b10 0080 da06 0080 0708 0080
000001f0: 4600 0080 320f 0000 1d05 0080 bb0b 0000
00000200: 99b1 8932 8b7a 4d2b 1f07 0000 9087 6e86
00000210: 030b 0000 c509 0000 0120 f4ab ca1d 9132
00000220: 60cf 07a2 4208 0080 9937 d5ac 5607 0080
00000230: ec09 0000 4e68 91ab 489d 401e a40a 0000
00000240: c2bd c3b5 8afe 0280 5405 3c2d 58c1 09a8
00000250: c10a 0000 b019 8829 d07b 1eac 5050 0fb4
00000260: b81b 7837 b6ce 6138 5a10 8507 42a1 a82d
00000270: 1a06 0000 a803 0000 5811 0000 2228 7e36
00000280: a907 0080 788f 1cb4 9607 0080 3c73 d7ad
00000290: 9422 212b 4d10 0080 7d05 0080 8441 ddab
000002a0: 02e8 95ac 7610 0080 10ca a830 ccdc 4139
000002b0: 0813 9a35 7707 0000 32b8 96b5 a003 0000
000002c0: 5d07 0080 eb01 0080 ffaf 63ad 1819 ab2b
000002d0: d81f c52d 3912 0000 1e06 0080 dd06 0000
000002e0: 6a6b 362d a81e 4930 201c c6b4 940b 8aaa
000002f0: 7200 0080 020b 0080 f908 0080 a8cc f52f
00000300: ccdc b598 6e0d 51af 8a0b 0000 3bcf a2ab
00000310: 60f8 311b 9705 0080 3c09 0000 5f04 0000
00000320: 3d73 0700 5563 7835 1624 96aa 730d 0000
00000330: b280 f1a7 2a5a c834 8e72 b023 caf9 16a9
00000340: b6bf 6f22 51b1 0100 bb08 0080 04b6 d022
00000350: 133b 0880 5062 0680 b6b3 0180 705d 1236
00000360: ed12 0080 71a1 5734 3a10 0080 640d 0000
00000370: 4400 0000 70ca 9810 904e 60b5 3111 0000
00000380: fa05 0000 d50c 0000 4804 0000 3901 0080
00000390: 880e 0080 3b12 0080 010f 0080 0708 0000
000003a0: 4e0b 0000 d602 0080 d208 0000 150b 0080
000003b0: 1f0c 0080 9601 0000 4d0d 0080 1504 0000
000003c0: 3c05 0000 3402 0080 5409 0080 3a06 0000
000003d0: 2803 0000 7304 0080 0701 0080 460d 0080
000003e0: dc0e 0000 5001 0000 0608 0000 2b0c 0000
000003f0: 980c 0080 1f00 0080 060a 0080 8e0a 0000

weight f4 [16]
-9.2e-43 6.56e-43 0.76180696 -6.695e-42 1.5e-43 2.466e-42 -1.534e-42 3.736e-42
1.372e-42 6.21e-43 2.01e-42 -5e-44 4.173e-42 0.709571 0.70888263 -2.451e-42
00000000: 9102 0080 d401 0000 c805 433f aa12 0080
00000010: 6b00 0000 e006 0000 4704 0080 6a0a 0000
00000020: d303 0000 bb01 0000 9a05 0000 2400 0080
00000030: a20b 0000 72a6 353f 5579 353f d506 0080

bias f4 [16]
-9.8e-44 -1.89e-43 0.00220255 -8.25e-43 2.595e-42 -2.581e-42 2.2e-43 -3.108e-42
-6.75e-43 -9.1e-44 3.294e-42 1.749e-42 -1.237e-42 0.0028500748 0.002858501 -2.179e-42
00000000: 4600 0080 8700 0080 a858 103b 4d02 0080
00000010: 3c07 0000 3207 0080 9d00 0000 aa08 0080
00000020: e201 0080 4100 0080 2f09 0000 e004 0000
00000030: 7303 0080 52c8 3a3b b055 3b3b 1306 0080

running_mean f4 [16]
2.02e-43 1.2657519e-12 0.026398232 6e-45 1.6470221e-10 3.3555726e-16 6.7897316e-10 3e-43
5.94e-43 4.7473996e-18 6e-45 4.68e-43 1.3302321e-14 0.025452415 0.025439722 2.16e-43
00000000: 9000 0000 8523 b22b 1b41 d83c 0400 0000
00000010: 8d17 352f 836f c125 7da2 3a30 d600 0000
00000020: a801 0000 ec25 af22 0400 0000 4e01 0000
00000030: 21a2 6f28 9581 d03c f766 d03c 9a00 0000

running_var f4 [16]
6e-45 6e-45 0.00031521122 6e-45 2.1494761e-38 6e-45 6e-45 6e-45
6e-45 6e-45 6e-45 6e-45 6e-45 0.00029302543 0.0002927331 6e-45
00000000: 0400 0000 0400 0000 ef42 a539 0400 0000
00000010: a60e ea00 0400 0000 0400 0000 0400 0000
00000020: 0400 0000 0400 0000 0400 0000 0400 0000
00000030: 0400 0000 35a1 9939 f979 9939 0400 0000

weight f4 [2, 16]
3.559e-42 2.375e-42 0.5375811 -3.678e-42 -4.53e-43 6.56e-43 4.987e-42 -4.12e-43
2.368e-42 1.972e-42 2.127e-42 3.125e-42 1.925e-42 0.50047815 0.499989 -2.421e-42
-4.205e-42 -7.95e-43 -0.5375811 3.444e-42 -3.42e-43 2.084e-42 -5.616e-42 1.31e-42
-2.452e-42 -1.337e-42 -1.917e-42 -2.298e-42 -5.014e-42 -0.50047815 -0.499989 2.458e-42
00000000: ec09 0000 9f06 0000 ea9e 093f 410a 0080
00000010: 4301 0080 d401 0000 e70d 0000 2601 0080
00000020: 9a06 0000 7f05 0000 ee05 0000 b608 0000
00000030: 5e05 0000 561f 003f 8ffe ff3e c006 0080
00000040: b90b 0080 3702 0080 ea9e 09bf 9a09 0000
00000050: f400 0080 cf05 0000 a80f 0080 a703 0000
00000060: d606 0080 ba03 0080 5805 0080 6806 0080
00000070: fa0d 0080 561f 00bf 8ffe ffbe da06 0000

bias f4 [2]
0.002982164 -0.0029821692
00000000: 6970 433b 7f70 43bb
